NLP/char-rnn-classification/char-rnn-classification.pt (torch_old, 115213 bytes, 4 tensors)

weight f4 [128, 186]
0	0xbe71839a	-0.23585358
1	0x3e26d100	0.16290665
2	0x3c246388	0.010033496
3	0xbd186cf2	-0.037213273
4	0xbd845388	-0.06461245
5	0x3e0cc7e0	0.13748121
6	0x3d51afae	0.05119293
7	0xbe0bb6e1	-0.13643982
8	0xbdbb89bc	-0.0915713
9	0xbdc89774	-0.097945124
10	0xbeed3a0b	-0.46333346
11	0x3e5cc7e4	0.21560627
12	0x3c941a75	0.018079022
13	0xbe16f8c3	-0.14743333
14	0xbda5bf4f	-0.0809313
15	0xbc77fa8d	-0.01513542
16	0x3deab54d	0.11460362
17	0x3e0bc755	0.13650258
18	0xbd6f3556	-0.058400474
19	0x3e66b327	0.22529279
20	0xbd0a4d21	-0.033764962
21	0xbe5a96f6	-0.2134665
22	0x3e4383ae	0.190932
23	0x3d8b2658	0.06794423
24	0xbe5205d4	-0.20510036
25	0x3e503ba7	0.20335256
26	0x3c779f5b	0.015113677
27	0x3cabe412	0.020982776
28	0x3d9c6206	0.07635884
29	0xbd567455	-0.052357037
30	0x3d5bdf59	0.053679798
31	0xbbbc5494	-0.005747387
32	0x3d74a25a	0.059725143
33	0x3d9486d1	0.07252277
34	0xbd47fedd	-0.04882704
35	0x3e0a66fc	0.13515848
36	0x3dfd10ad	0.12356696
37	0xbe1e09c8	-0.15433419
38	0xbd1a4268	-0.037660986
39	0x3d9017cf	0.07035791
40	0x3dda16e6	0.10648899
41	0xbc95be0e	-0.018279102
42	0xbd4dcac3	-0.050242197
43	0x3e655585	0.22395904
44	0x3c6192b4	0.013767887
45	0xbe2dfd52	-0.16991165
46	0x3d45c763	0.048285853
47	0xbddf4827	-0.10902434
48	0x3da6d1a8	0.081454575
49	0x3cbf72c6	0.023370158
50	0x3e07cc82	0.13261607
51	0xbdb27c41	-0.08715106
52	0x3de2d6be	0.11076115
53	0xbd35fc3a	-0.044429995
54	0x3d406a5c	0.046976432
55	0x3c675710	0.014119878
56	0x3ca76fc2	0.020439032
57	0x3b77975a	0.0037779422
58	0xbdb1ae63	-0.0867584
59	0xbd21866f	-0.039434846
60	0xbc64a5d5	-0.013955553
61	0x3c27830e	0.010224117
62	0x3bfba94b	0.0076800934
63	0xbd88efb8	-0.06686348
64	0x3c9ee2db	0.019395282
65	0xbd0ea64f	-0.034826573
66	0xbdd42cc5	-0.103601016
67	0x3d399234	0.045305446
68	0xbdfa9464	-0.122353345
69	0xbccd6cb7	-0.025076253
70	0xbd73c0da	-0.05951009
71	0xbdf2347c	-0.11826417
72	0xbd6f976f	-0.058494028
73	0xbd691d58	-0.05691275
74	0x3ceb4504	0.028719433
75	0xbd495e72	-0.049162336
76	0x3ca4c456	0.020113152
77	0xbc388185	-0.011261349
78	0x3d02a037	0.031891074
79	0x3d51adad	0.05119102
80	0x3c58f3ae	0.0132416915
81	0xbbbd41d0	-0.0057756677
82	0x3d94aeb5	0.07259885
83	0xbd1c6273	-0.038179826
84	0x3da44d59	0.080225654
85	0x3d681ce7	0.05666819
86	0xbb8516e7	-0.004061568
87	0xbd95b853	-0.07310548
88	0xbd060af0	-0.032725275
89	0xbd30173f	-0.04299092
90	0xbd200ae8	-0.0390729
91	0xbc28a52f	-0.010293289
92	0x3c666ac1	0.014063538
93	0x3d561f03	0.05227567
94	0x3c7f0c8b	0.015566955
95	0x3c396ab4	0.011316944
96	0x3da5c063	0.080933355
97	0x3dd5fc54	0.104485184
98	0x3c929784	0.017894514
99	0x3da54559	0.08069868
100	0xbd473ec3	-0.04864384
101	0xbc8198d0	-0.015819937
102	0xbd86b2dd	-0.06577084
103	0xbd8e05e3	-0.069347166
104	0x3d977efd	0.07397268
105	0xbd0dfe68	-0.03466645
106	0x3d4d24b9	0.05008385
107	0x3a3c2530	0.0007177172
108	0xbc68e8f5	-0.014215698
109	0xbd48d1ce	-0.04902821
110	0xbdcf1671	-0.10111702
111	0xbd8a7f20	-0.067625284
112	0x3e1be361	0.15223457
113	0x3e0648fa	0.13113776
114	0x3dc7ce5b	0.09756156
115	0x3d81a5f2	0.0633048
116	0x3dd083d6	0.10181396
117	0x3d056dee	0.03257554
118	0x3c91ab46	0.017781865
119	0x3dfc76b0	0.12327325
120	0x3d37dc64	0.044887915
121	0xbcf1cb1d	-0.029515797
122	0x3c92851e	0.01788574
123	0xbd913eeb	-0.07092079
124	0xbdb273f9	-0.08713526
125	0xbd4d06a7	-0.050055172
126	0x3d132982	0.035928257
127	0xbd686f07	-0.05674651
128	0x3d66ab84	0.056315914
129	0x3ba80b4d	0.0051283003
130	0xbdc39765	-0.095503606
131	0x3d0edd84	0.034879223
132	0x3d5a46c3	0.05329014
133	0xbd934d29	-0.071924515
134	0xbd107b66	-0.035273932
135	0xbd203ddb	-0.03912149
136	0x3d5f270c	0.054480597
137	0xbc176af7	-0.009241811
138	0x3d96fb2c	0.07372126
139	0xbdad5331	-0.08463133
140	0x3d777c60	0.060421348
141	0xbdde1bb6	-0.10845129
142	0xbdc60d34	-0.09670487
143	0x3dadc9bc	0.084857434
144	0xbdc6448e	-0.096810445
145	0xbc2a8360	-0.010407299
146	0x3d6c9202	0.05775643
147	0xbcc3f9b2	-0.023922775
148	0xbc84a28c	-0.01619079
149	0xbd7ee50f	-0.062230166
150	0xbde2be2a	-0.11071427
151	0x3b9e0345	0.004822167
152	0x3c8e4972	0.017369006
153	0xbd8eb8db	-0.06968852
154	0x3cb2a1a1	0.021805586
155	0x3e041ad2	0.12900856
156	0x3b67d658	0.0035375562
157	0xbc842a61	-0.01613349
158	0x3da96f16	0.08273141
159	0x3cc02afe	0.023458
160	0xbc842c4c	-0.016134404
161	0x3d0c2d4b	0.034222882
162	0x3df83904	0.1212025
163	0x3bd7206b	0.006565144
164	0x3d289b8d	0.04116397
165	0x3dbc0ca7	0.09182101
166	0x3d113d03	0.035458576
167	0x3b43ac36	0.0029857284
168	0xbd5f9c13	-0.054592203
169	0xbd011150	-0.03151065
170	0x3dbb79f5	0.09154121
171	0x3d4df9a5	0.050286908
172	0xbcf7447a	-0.03018402
173	0x3d57ca24	0.05268301
174	0x3d09b660	0.033621192
175	0xbdf2ee83	-0.11861899
176	0xbc15c564	-0.0091413
177	0x3d6031ea	0.0547351
178	0x3d76bf4b	0.060241025
179	0xbd3b0eb8	-0.045668334
180	0x3d3e4480	0.046452045
181	0x3db8d335	0.090246595
182	0x3df6bc9d	0.12047694
183	0xbcd0f735	-0.025508502
184	0xbd4411b0	-0.04786843
185	0x3d8372f8	0.06418413
186	0xbd127f43	-0.035765897
187	0xbd7caa5a	-0.061685897
188	0xbb054b53	-0.0020339086
189	0x3c07a689	0.008279451
190	0xbd22f9a5	-0.03978886
191	0x39402f32	0.00018328128
192	0x3db3bfb7	0.08776801
193	0x3c9eb071	0.019371243
194	0x3ccd3126	0.02504785
195	0xbdc9e0ae	-0.098573074
196	0xbd958f64	-0.0730274
197	0x3d8b0a25	0.06789044
198	0xbd94a8e1	-0.072587736
199	0x3df84b2c	0.12123713
200	0x3cf32ea6	0.02968533
201	0x3e178f09	0.14800657
202	0xbd74cc67	-0.059765246
203	0x3e248314	0.16065627
204	0xbd2e7a49	-0.04259709
205	0xbe09c26d	-0.13453074
206	0x3d2e7c96	0.042599283
207	0x3e908b3e	0.28231233
208	0xbe2599df	-0.16171978
209	0xbcf0e14a	-0.029404301
210	0x3c62c370	0.013840541
211	0xbe2aefd1	-0.16693045
212	0xbe3c90dc	-0.18414634
213	0x3d0e1b2b	0.03469388
214	0x3d73ca6c	0.059519216
215	0x3d416cff	0.047223087
216	0x3ca23583	0.019800907
217	0x3dab8e6c	0.08376774
218	0x3d6ce381	0.057834152
219	0x3dc25e5d	0.094906546
220	0xbdd6e101	-0.10492135
221	0xbded7956	-0.115954086
222	0xbd31bcb7	-0.043392863
223	0x3e370726	0.1787382
224	0x3da78bf8	0.08180994
225	0xbe147aba	-0.14499941
226	0xbe04f089	-0.12982382
227	0x3da58577	0.08082097
228	0x3d47e3b9	0.048801158
229	0xbcbb8248	-0.022889271
230	0xbe1b1277	-0.15143763
231	0x3e2be382	0.16786006
232	0xbd3dee4b	-0.046369832
233	0x3e8bbfb1	0.27294686
234	0xbe05956b	-0.1304528
235	0xbb378ba1	-0.002800681
236	0xbe83ed29	-0.25766876
237	0x3d9ff824	0.07811001
238	0xbd099613	-0.033590388
239	0x3ce17f3c	0.02752649
240	0xbcd6cd62	-0.026220981
241	0x3c855490	0.016275674
242	0x3c6520d5	0.013984879
243	0xbd3689ef	-0.044565137
244	0xbd830d74	-0.0639905
245	0x3dacc1df	0.084354155
246	0xbc27a0a4	-0.010231171
247	0xbcfe596e	-0.031048503
248	0x3da0bf5a	0.078489974
249	0xbd0fe347	-0.035128858
250	0xbd1e2adc	-0.038615093
251	0xbcfdfd84	-0.031004675
252	0x3bc05828	0.005869884
253	0x3d85da0f	0.06535732
254	0xbcc137f0	-0.023586243
255	0x3d151d87	0.036405113

bias f4 [128]
0	0x3c987925	0.018612454
1	0x3d1000e3	0.035157096
2	0x3de8e764	0.11372259
3	0x3e147bba	0.14500323
4	0x3db0e742	0.08637859
5	0x3d1894d9	0.037251327
6	0xbd1c5de7	-0.03817549
7	0x3dea109d	0.1142895
8	0xbc70129b	-0.014652873
9	0xbc6f4022	-0.014602693
10	0x3d15c25d	0.036562312
11	0x3ced595e	0.028973278
12	0x3dadadbd	0.084804036
13	0x3d4c8c38	0.04993841
14	0xbd30b5b9	-0.043142054
15	0xbd93de57	-0.07220142
16	0x3d7fcfe4	0.06245412
17	0x3be669b9	0.007031646
18	0x3d14d776	0.036338292
19	0xbc790783	-0.015199545
20	0xbd69abf8	-0.057048768
21	0xbd10ea35	-0.035379607
22	0x3aee636b	0.0018187588
23	0x3d615778	0.055015057
24	0x3c600fd1	0.013675646
25	0x3ddca14a	0.10772951
26	0xbb918e7a	-0.0044420334
27	0x3d03f3c7	0.032214906
28	0x3cd41696	0.025889676
29	0xbcf3a273	-0.029740548
30	0xbdafef47	-0.085905604
31	0x3ccc0fd3	0.02490989
32	0x3cd2e550	0.02574411
33	0x3db474e6	0.08811359
34	0xbe0fa950	-0.14029431
35	0xbc9ef33a	-0.019403089
36	0xbe1f045c	-0.15529007
37	0x3d777e57	0.06042322
38	0xbde769c1	-0.11299468
39	0xbcdccb4e	-0.026952412
40	0xbbbf9d65	-0.0058476203
41	0xbdfbf453	-0.123024605
42	0xbd83d320	-0.06436753
43	0xbd2275e3	-0.039663207
44	0x3df9889e	0.12184261
45	0xbd0b5dfb	-0.034025174
46	0xbba75e57	-0.0051076817
47	0x3dcae3f5	0.099067606
48	0xbd84077f	-0.06446742
49	0x3e02d627	0.12777005
50	0x3de65c18	0.11248034
51	0x3c498573	0.012299883
52	0x3ccdc239	0.025117027
53	0xbcf2770a	-0.029597778
54	0x3d6d1afc	0.057887062
55	0xbcbfd78a	-0.023418207
56	0x3c77302f	0.015087171
57	0xbdf7cde5	-0.12099818
58	0xbbc340e5	-0.0059586638
59	0xbdfccb03	-0.12343409
60	0x3dc5a51e	0.09650634
61	0x3cddb180	0.027062178
62	0xbd2650ac	-0.04060428
63	0xb987819a	-0.00025845767
64	0xbd00c02d	-0.031433273
65	0x3bc6489a	0.0060511352
66	0xbd127a30	-0.03576106
67	0x3df326e8	0.11872655
68	0xbcc855dd	-0.024455005
69	0x3c3fc8d7	0.011705599
70	0x3d32f766	0.04369297
71	0xbd01dc62	-0.031704314
72	0xbd7d3d62	-0.061826117
73	0xbd5a262b	-0.053259056
74	0xbbbe2d50	-0.0058037415
75	0x3dd1576e	0.10221754
76	0xb9c2028d	-0.00037004464
77	0x3d4a590a	0.04940132
78	0xbd35f0e0	-0.04441917
79	0xbcac5b0c	-0.021039508
80	0x3d3e523c	0.046465144
81	0xbc012786	-0.007882958
82	0x3d8b833d	0.06812141
83	0xbc538908	-0.012911089
84	0x3c27fe8e	0.010253562
85	0x3dc13b92	0.0943519
86	0x3d02e995	0.031961042
87	0x3c451155	0.012028058
88	0x3ddab10d	0.10678301
89	0xbca5970d	-0.020213628
90	0x3aa8f14b	0.0012889294
91	0xb9dd1e96	-0.00042175193
92	0xbca94a67	-0.02066536
93	0x3c1dfb41	0.009642423
94	0x3cb22440	0.021745801
95	0xbd9efe21	-0.07763315
96	0xbdb04875	-0.0860757
97	0xbdc4df3e	-0.096128926
98	0xbd3ed967	-0.04659405
99	0xbca2d7b6	-0.01987825
100	0x3c931805	0.01795579
101	0x3dd24d3d	0.10268638
102	0x3da1806a	0.07885821
103	0xbd313583	-0.043263923
104	0x3bcc4138	0.0062333606
105	0xbde19071	-0.11013878
106	0xbc757d8c	-0.014983546
107	0xbdca06b0	-0.09864557
108	0x3da57253	0.08078446
109	0xbc98d5c8	-0.018656626
110	0x3d028d96	0.031873308
111	0x3dae8ec5	0.08523325
112	0x3d9932e5	0.074804105
113	0x3d82aadc	0.06380245
114	0x3ce8e24f	0.028428225
115	0x3ca6b4d8	0.020349905
116	0xbd7f4e34	-0.06233044
117	0xbdaebd03	-0.08532145
118	0x3d5c994a	0.053857125
119	0xbde038e3	-0.1094835
120	0xbd133ee0	-0.035948634
121	0x3d86e991	0.06587518
122	0x3d412e8f	0.047163542
123	0xbd2fe66d	-0.04294436
124	0xbcc07cdb	-0.023497036
125	0xbd4bb7ff	-0.04973602
126	0xbd6676d3	-0.056265663
127	0x3dda9775	0.106734194

weight f4 [18, 186]
0	0x3f895ffd	1.0732418
1	0x3cef58c4	0.029217131
2	0x3ea4669e	0.3210954
3	0xbe4567fb	-0.19277947
4	0xbf2168b9	-0.6305042
5	0xbe5f85a6	-0.21828327
6	0xbdfa6947	-0.12227111
7	0x3e8bb9ad	0.27290097
8	0xbf52810d	-0.82228166
9	0xbd2d12d2	-0.042254277
10	0x3fd447d7	1.6584424
11	0x3f7182bf	0.9434013
12	0xbe707047	-0.2348033
13	0xbf12b448	-0.5730634
14	0xbf212af8	-0.6295619
15	0x3dd83a6d	0.10558019
16	0xbc182610	-0.009286419
17	0x3eee65d1	0.46562055
18	0xbf30c2c4	-0.6904719
19	0x3d65caa9	0.056101475
20	0xbe2c13be	-0.16804406
21	0xbe55fa26	-0.20896205
22	0xbc8f5d1d	-0.017500455
23	0xbdcaf85b	-0.09910651
24	0x3ea2acd5	0.31772485
25	0x3c4f1ef0	0.012641653
26	0x3b43d3a0	0.0029880777
27	0x3d28f8b0	0.041252792
28	0x3d369e84	0.044584766
29	0x3ca896e0	0.020579755
30	0x3d7581c6	0.059938215
31	0x3caa56e8	0.020793393
32	0x3d276552	0.04086811
33	0xbd795b13	-0.06087787
34	0x3c5333e8	0.012890793
35	0x3d7682da	0.060183384
36	0x3d245790	0.04012257
37	0xbc8ff750	-0.017573982
38	0xbd87fa64	-0.06639555
39	0x3cdb7b60	0.026792228
40	0x3dc34d7b	0.095362626
41	0xbd0cb540	-0.03435254
42	0x3c8791cc	0.016549014
43	0xbb2e7800	-0.0026621819
44	0xbc9fc142	-0.019501332
45	0x3c1063a0	0.008812815
46	0x3d4b7ab8	0.04967758
47	0xbd84b4a0	-0.06479764
48	0xbcb81e66	-0.022475433
49	0x3d65d9d2	0.056115933
50	0xbd7d4622	-0.061834462
51	0xbd2e5811	-0.042564455
52	0xbe131a0e	-0.14365408
53	0xbc91a45e	-0.017778572
54	0xbd891943	-0.066942714
55	0xbaf9c780	-0.0019056648
56	0x3d90bc21	0.07067133
57	0xbcceb19e	-0.025231179
58	0xbde6a5a8	-0.11262065
59	0x3df670b4	0.12033215
60	0x3e037e40	0.1284113
61	0x3ad5bc3e	0.0016306711
62	0xbdfe0568	-0.12403375
63	0x3d7558f9	0.059899304
64	0x3ca3f1ca	0.020012755
65	0x3cd02460	0.02540797
66	0xbd6db218	-0.05803117
67	0xbddbf955	-0.10740916
68	0x3e4aadd8	0.19792879
69	0xbd85e26b	-0.065373264
70	0x3d97c824	0.07411221
71	0x3e194364	0.14967114
72	0x3b095b35	0.0020958905
73	0xbdd69ac7	-0.1047874
74	0xbe1f0b95	-0.15531762
75	0x3cfa45a4	0.030550785
76	0x3de1d0ef	0.11026179
77	0x3e2591fe	0.16168973
78	0xbd0e741d	-0.034778703
79	0xbe112175	-0.14172919
80	0x3d2fcef9	0.042921994
81	0xbe8cd2c2	-0.27504545
82	0x3d2a6e92	0.041609354
83	0xbdfe1ade	-0.12407468
84	0x3c86313c	0.016380899
85	0x3dca0d27	0.0986579
86	0xbe7de01d	-0.24792524
87	0x3e2a2789	0.16616644
88	0xbcb32831	-0.02186975
89	0xbdf88dd7	-0.12136429
90	0x3e78f57c	0.24312395
91	0x3df36293	0.11884036
92	0x3db69a6f	0.089161746
93	0x3e6b22a9	0.2296244
94	0x3c3b0668	0.011415102
95	0xbd3cc6b8	-0.04608795
96	0x3e3f3a70	0.18674636
97	0xbe164891	-0.1467612
98	0xbe868715	-0.26274934
99	0xbe009895	-0.12558205
100	0x3d008823	0.03137983
101	0xbd815155	-0.06314341
102	0xbe103d2a	-0.14085832
103	0x3de3f1a2	0.11130072
104	0xbd986f5c	-0.07443115
105	0x3e7d8224	0.24756676
106	0xbcec748d	-0.02886417
107	0x3e56eef3	0.2098959
108	0x3d52d157	0.051469173
109	0xbc91d6a2	-0.01780254
110	0xbde47ca6	-0.11156587
111	0x3e1eeb30	0.15519404
112	0x3d95ad65	0.07308463
113	0xbe161280	-0.14655495
114	0xbda55738	-0.08073276
115	0xbe6e2304	-0.23255545
116	0x3de9ce20	0.11416268
117	0xbdac8963	-0.08424642
118	0x3cab882a	0.020938952
119	0xbd03ce59	-0.03217921
120	0xbe28b1bb	-0.16474049
121	0xbe0b50ee	-0.13605091
122	0xbddda5db	-0.1082265
123	0xbe5f95fe	-0.21834561
124	0xbd994747	-0.07484298
125	0xbde6cf77	-0.112700395
126	0x3cf0892e	0.029362287
127	0x3e436e54	0.19085056
128	0xbdb21ce4	-0.08696917
129	0xbcf3fefb	-0.02978467
130	0x3e13c73a	0.14431468
131	0x3dd061fc	0.10174939
132	0x3db6fe8f	0.08935272
133	0x3debe4af	0.11518227
134	0x3e1599b1	0.1460941
135	0xbe8d9a87	-0.27656958
136	0xbd04690c	-0.032326743
137	0x3db88e24	0.09011486
138	0xbba4895d	-0.005021258
139	0x3d3dea64	0.04636611
140	0xbd97d642	-0.07413913
141	0x3d394d70	0.045239866
142	0xbe141e4d	-0.14464684
143	0xbdfd3623	-0.123638414
144	0xbe1e937e	-0.15485951
145	0xbce2fa05	-0.02770711
146	0xbce7b4b8	-0.028284416
147	0x3e010593	0.12599783
148	0x3e8234bd	0.2543086
149	0x3e6647f8	0.22488391
150	0x3d063ea2	0.032774575
151	0x3d533cd4	0.051571682
152	0xbc0502e0	-0.008118361
153	0x3cc94dcb	0.024573227
154	0xbe79ee33	-0.24407272
155	0x3dab12a0	0.08353162
156	0x3e25dd7d	0.16197772
157	0x3dc2aac4	0.09505227
158	0xbe883126	-0.26599997
159	0xbe244924	-0.16043526
160	0x3ec17860	0.3778715
161	0x3d8db85b	0.06919929
162	0xbd72b4d2	-0.059254475
163	0xbe3bf99c	-0.18356937
164	0xbe616d17	-0.2201427
165	0x3d9ecc23	0.0775378
166	0xbdbbbece	-0.091672525
167	0xbc31f73b	-0.010862167
168	0x3e359e5c	0.1773619
169	0xbe360ea9	-0.1777903
170	0xbdc569d9	-0.096393295
171	0x3dc4797a	0.09593482
172	0xba38999d	-0.0007041933
173	0x3d980c7d	0.07424257
174	0xbe1a1dcb	-0.15050428
175	0x3cfcd5b7	0.030863626
176	0xbc6dbeb5	-0.0145108
177	0x3e0598f5	0.1304663
178	0x3ad4eaa7	0.0016244248
179	0x3d5717b5	0.052512843
180	0xbe07032f	-0.13184808
181	0xbe2c5690	-0.16829896
182	0xbda0c794	-0.078505665
183	0xbdd57f44	-0.104246646
184	0xbd21153e	-0.0393269
185	0xbe209499	-0.15681686
186	0xbfa2aeda	-1.270961
187	0x3dc04df4	0.093898684
188	0xbe479c71	-0.19493271
189	0x3e5bc5e3	0.21462207
190	0x3d8f1c86	0.06987862
191	0x3e115551	0.14192702
192	0x3e27b0fd	0.1637611
193	0x3e320657	0.17385231
194	0xbf27ba00	-0.6551819
195	0xbdb9eecd	-0.09078751
196	0xbd4415dc	-0.04787241
197	0x3ef6ca09	0.48201016
198	0xbcf18e75	-0.029486874
199	0x3f06f9cd	0.52724916
200	0xbf5773f0	-0.8416128
201	0x3e0e6f4e	0.13909647
202	0x3ca44d38	0.020056352
203	0x3fdc4f6f	1.7211741
204	0xbe1c7213	-0.15277891
205	0x3f0b0b86	0.5431446
206	0xbe8c597c	-0.2741202
207	0xbe4cc2b7	-0.19996153
208	0xbdb56e91	-0.088589795
209	0xbda65839	-0.08122296
210	0xbf33e172	-0.7026588
211	0x3f1eb241	0.61990744
212	0xbd5e1840	-0.054222345
213	0x3cd9e9e1	0.02660078
214	0x3d93acbf	0.07210683
215	0x3d13f42c	0.036121532
216	0x3c1d53a0	0.009602457
217	0xbc9e85ba	-0.019350875
218	0x3c836998	0.016041562
219	0xbd8613c7	-0.06546741
220	0xbd8d6d0a	-0.06905563
221	0xbd925dac	-0.07146773
222	0x3d1a30e0	0.037644267
223	0xbd8772ac	-0.06613669
224	0x3d8db9b9	0.069201894
225	0xbd07b154	-0.033128098
226	0xbc926259	-0.017869161
227	0xbd649d32	-0.055813976
228	0xbbada510	-0.005299218
229	0x3d00c67e	0.031439297
230	0xbcc5f152	-0.024162922
231	0xbccdd134	-0.02512417
232	0x3d88355d	0.06650803
233	0xbd3a9240	-0.04554963
234	0xbd089049	-0.033340726
235	0xbc7e7134	-0.015529919
236	0xbd7354dc	-0.0594071
237	0xbd879cee	-0.06621729
238	0xbe4aaa5a	-0.19791546
239	0x3d5cb9fa	0.0538883
240	0xbd8a5a31	-0.06755484
241	0xbaa5a7c0	-0.0012638494
242	0xbd8c2e34	-0.0684475
243	0xbd848c38	-0.06472057
244	0x3d398136	0.04528924
245	0xbe378273	-0.17920856
246	0x3d16743d	0.036731947
247	0xbe404563	-0.18776469
248	0x3d0874f5	0.033314664
249	0xbdcc1771	-0.099654086
250	0xbd42d1b8	-0.047563285
251	0x3d19c03c	0.037536845
252	0x3e1909a0	0.14945078
253	0x3d20d021	0.039260987
254	0x3e524481	0.20533945
255	0x3d99a006	0.07501225

bias f4 [18]
0	0x3eb3dd05	0.35129562
1	0x3ed7629b	0.42067418
2	0x3d912e45	0.07088903
3	0xbeb927af	-0.3616309
4	0x3e2d690e	0.16934606
5	0x3ee724a2	0.45145136
6	0x3d5defe6	0.054183863
7	0x3e449271	0.19196488
8	0x3a41d551	0.00073941523
9	0x3eea07f6	0.457092
10	0xbdb93d2b	-0.0904487
11	0xbf810572	-1.0079787
12	0xbefa187d	-0.48846808
13	0xbebb2a8f	-0.36555907
14	0xbce5df6a	-0.028060634
15	0x3d85f657	0.06541126
16	0x3f47a1fc	0.77981544
17	0xbe849911	-0.2589803
