NLP/char-rnn-classification/char-rnn-classification.pt (torch_old, 115181 bytes, 4 tensors)

weight f4 [128, 186]
00000000: 35cf 383e 870b 19bd 5525 ec3c a6ed 733d
00000010: 7a02 93bd 79c0 1fbd 2535 603d 5119 df3d
00000020: 17d9 b4bd c122 5c3d 9032 a13d ce9a 053d
00000030: ba68 793c 5c16 02bd f925 edbd eede adbd
00000040: 1298 c83c b75b 4dbd 5b7a d9bd b4cc 90bd
00000050: bfcf c53d ac2f d9bc 4be4 273d 4d7e 92bb
00000060: 7739 4fbd 7fe5 abbd b20e a1bd 51c9 b7bc
00000070: 1e5c 4e3d d728 383d e4ff 95bc 487a 173c
00000080: 296c 88bd bd0d 02bd 43b4 6b3d 0f0d 653d
00000090: f03b 53bd 8907 7b3d 90b3 00bd 6163 98bd
000000a0: 333d 213d 6479 ff3c 267a b63d 851c b6bd
000000b0: 9e30 023b f96f d4bc ab76 513c 6eb3 1cbd
000000c0: 5ade 07bc e9e7 073d bed7 193d 0322 5e3c
000000d0: c40b 833d dce4 423d f0da 993b 1c8e 70bc
000000e0: 41a6 8e3d b7ea f73c d15b bb3d 79f9 07bc
000000f0: 8812 4ebd 33da 3a3d fe86 c0bd 22c1 213c
00000100: b1cd aabc ba7b 9d3d 49d4 08bd c0d8 9dbd
00000110: 08b7 34bd e3b8 e93c 21af 433d a872 7d3d
00000120: 7e1d 7dbd e3aa 93bd 8442 863d 626d 883d
00000130: 323f 923d 34a7 cfbc afe2 28bd b0db 013d
00000140: 797b 66bd fb3f 9fbc 8d9e 83bd 7c26 0bbd
00000150: d797 273b ef07 3ebd 4dd0 8cbd b163 b63c
00000160: 05ff 91bd 9d6e 033c 9080 8b3d 1300 f03b
00000170: e665 67bd 819a e8bc 9f03 bf3c 7e67 72bc
00000180: ba6e d53d 1bff ae3c b3b8 d1bc bbc9 583d
00000190: 3a53 8f3c 0f27 95bd bec5 233c 5b86 903d
000001a0: f40a 5d3d a1b9 183d 95b5 2fbd c8d7 303c
000001b0: 38b7 9bbd ca6c 1e3d e2a1 76bd 37c2 0c3c
000001c0: 1b2d 8c3c c92f c63c 18d6 ff3c ca75 a23c
000001d0: a699 b33d 873e b4b9 f039 f83c ae0a b63c
000001e0: 6144 f23c fc71 413d ec82 f9bc c2b1 043d
000001f0: ddea 24bc 6aa0 11bd 7ba8 973d 7d62 833d
00000200: 90b7 4ebd 26ab 4a3d 1bd5 72bc 2483 81bd
00000210: 4278 6abd 795d 4ebd 6072 22bd af2b a5bb
00000220: 6522 96bd 5955 d73b 77c6 8cbd 2e35 11bd
00000230: a020 fa3c 3f84 90bd 949e 983d 5135 06bc
00000240: a54a c1bc c30a 71bd 47fe b83c eaf2 9a3d
00000250: ad73 98bc 025b bcbc 98c7 923d 4cb3 04bd
00000260: 2124 683d 747c aebd 5763 a9bc f7b1 8ebd
00000270: e6d5 9b3d 8fe0 5fbd 8cd3 aabc 5c45 beba
00000280: 0bb5 f43c 8967 353d 56f9 95bd 09f4 7cbc
00000290: 53b5 2cbd a773 233d 3aca bc3b 6903 2e3d
000002a0: cd79 b4bc d084 53bd 47fe 61bc 6174 99bd
000002b0: dd2b 1f3d 438c 4a3d 24da a0bd 856f 7b3c
000002c0: b32c e53c 9a2c 8fbd c79c 5f3b b300 13bb
000002d0: 4d59 85bd b623 5e3d 9306 e13c f257 96bd
000002e0: cdf6 7e3d e559 29bd d591 05be 0db5 6b3a
000002f0: f161 b53b e76e 7f3d 0c2c 9e3d 8f51 1a3d
00000300: 724f 8abc 30df 01be d387 3cbc aa3a 1a3c
00000310: 2e84 32bb c5db 063d a77a 8bbd d5fd bbbc
00000320: 9923 763b 6b2f 0dbb 4a1a 6bbd 1b0a 0d3d
00000330: d345 123d 4134 543c 9cbd 16bd e861 17bd
00000340: fe69 453d 7586 cc3c 51dc d6ba d611 17bd
00000350: cb9e dabc 358c 183b 5da6 42bc 71a8 70bc
00000360: b920 34bb 481a 583a 02f7 94bd 1db7 83bd
00000370: ea89 1b3d 33bd 94bd f6e9 4cbd 0ecf 29bb
00000380: e0cf 703c 13fe a3bc 4007 3fbd 4256 033d
00000390: 75e2 81bd f829 c03c ef5c 203d 76ee bebd
000003a0: 7cc1 8dbd 11cf 62bd 20ee 87bd e409 223d
000003b0: 3b1f 233d 9af3 6d3d 46d5 acbc 815b 2dbd
000003c0: e01c 383b befc 2abd a992 66bd 86c4 083d
000003d0: 7e5e aebd 3de9 fbbc b53c 63bd 9232 513d
000003e0: 7f6c 8a3c 9716 1d3d 1f90 803d 60f2 1fba
000003f0: cfb4 9a3d 730f 6b3b 0762 4eba 200e bc3d
0.18047793 -0.03736451 0.028826395 0.05955281 -0.07178207 -0.039001916 0.054738183 0.108935006
-0.08830469 0.05374408 0.07870972 0.032618336 0.015222723 -0.031759605 -0.11579508 -0.08489786
0.024486575 -0.050136294 -0.106190406 -0.07070294 0.09658765 -0.02651199 0.0409892 -0.0044706226
-0.050591912 -0.08393382 -0.07864131 -0.022434862 0.05038082 0.044960823 -0.018310495 0.009245463
-0.06661255 -0.031751383 0.057544958 0.055920657 -0.051570833 0.061286483 -0.031421244 -0.0744083
0.039365005 0.031185813 0.08910017 -0.088921584 0.0019865404 -0.025932299 0.01278464 -0.038257055
-0.008292759 0.03318015 0.037559263 0.013557914 0.063987285 0.04758154 0.004695289 -0.014682319
0.06965304 0.030263288 0.09148372 -0.008299225 -0.05031064 0.045618247 -0.09400748 0.009872707
-0.020850034 0.076896146 -0.033405576 -0.077073574 -0.044119865 0.028530544 0.047774438 0.061876923
-0.061795704 -0.072103284 0.065556556 0.06661488 0.0714096 -0.025348283 -0.041231807 0.03170365
-0.056270096 -0.019439688 -0.064267255 -0.03397225 0.0025572681 -0.046394285 -0.06875668 0.022264333
-0.07128719 0.008021978 0.06811631 0.0073242276 -0.056493662 -0.028393986 0.023317156 -0.014795182
0.1042151 0.021361878 -0.025600767 0.05292676 0.01749574 -0.072828405 0.009995876 0.07056876
0.053965524 0.037286405 -0.04289778 0.010793634 -0.076033056 0.038677968 -0.060212977 0.008591226
0.017111352 0.024192708 0.031230018 0.019831557 0.087695405 -0.00034378862 0.030301064 0.02222189
0.029573621 0.047227845 -0.030457936 0.032396086 -0.010065761 -0.035553373 0.07405182 0.064152695
-0.050468028 0.049479626 -0.014821316 -0.06323841 -0.057243593 -0.05038211 -0.039659858 -0.005040608
-0.07330779 0.0065714535 -0.06873792 -0.035451107 0.030533135 -0.07056474 0.074521214 -0.008191423
-0.023595164 -0.058848154 0.022582186 0.075658634 -0.018609846 -0.022992615 0.07166976 -0.032397553
0.05667508 -0.08519831 -0.020677252 -0.06967538 0.07609157 -0.054657515 -0.020852827 -0.001451652
0.029871484 0.044288192 -0.07322948 -0.015439042 -0.04216511 0.039905217 0.005761412 0.04248372
-0.022030735 -0.05164033 -0.013793535 -0.07492901 0.03886019 0.04945017 -0.07854107 0.015346413
0.027975416 -0.06990929 0.0034120546 -0.0022430837 -0.065111734 0.054233275 0.027468955 -0.07340993
0.062247086 -0.041345496 -0.13043912 0.0008991517 0.005535357 0.062361624 0.07723245 0.037675437
-0.016883586 -0.12682796 -0.011506992 0.009413401 -0.002723943 0.032924432 -0.068105035 -0.022948185
0.003755784 -0.0021543156 -0.057398118 0.034433465 0.03571112 0.012951911 -0.03680192 -0.036958605
0.048196785 0.024966458 -0.0016392564 -0.036882244 -0.026687047 0.002327693 -0.011880484 -0.014688597
-0.0027485325 0.00082436623 -0.072736755 -0.064314105 0.037973322 -0.072626494 -0.05002781 -0.0025910768
0.014697999 -0.020018613 -0.046637774 0.032064684 -0.063420214 0.023457512 0.03915113 -0.093228266
-0.0692167 -0.055373255 -0.066372156 0.039560214 0.039824706 0.058093645 -0.02109779 -0.042323593
0.0028093383 -0.04174494 -0.05629221 0.033390544 -0.08514117 -0.030750865 -0.055477817 0.05107362
0.016897438 0.03835162 0.06277489 -0.00061014853 0.07554018 0.0035867363 -0.00078728836 0.09182382

bias f4 [128]
00000000: b2c8 2ebc 4a22 6abd 40ef 0bbd 819e 3cbd
00000010: a97b 48be 3539 263e 724a 003e f622 963d
00000020: aac9 b73d 32bf a8bc e701 333e dfdd abbd
00000030: 57e0 323d b348 e03d fc0e 71bd 45fc e43c
00000040: 54cc ab3a 8f3d 0dbc 4c0a be3d eb2a c93d
00000050: 79c1 6d3d 320d 18bd c741 113e d8b1 8e3c
00000060: 7d35 513c 097f 483d 1dd5 9dbd 86c5 c1bd
00000070: d650 b1bd 1f6b 8a3d de09 1a3d 058e afbd
00000080: b423 773e 0002 223d e451 68bd b18f a5bd
00000090: 94c1 5bbd c3e6 003d 25ee 1a3e d8d0 80bd
000000a0: da61 01be 25c9 16be d303 acbd 64db a53d
000000b0: a89e a8bc 11f6 bf3d 596c 073e ee68 70bd
000000c0: e98b a73d 9b1f 97bc 97af 35be 8997 16be
000000d0: 83eb 973c 91e7 3f3e c676 ff3d 2ad8 343e
000000e0: fcf2 3d3d a4cb 713e 433a 01be f5fc 5f3d
000000f0: 4f93 803d 8ba6 653d 1a44 f23d 29f2 f43c
00000100: 95ec d23c ad56 abbd d35e ce3d 1633 d2bc
00000110: e3ca aabb 55e1 853d 0593 133d 7115 f23c
00000120: 7621 0ebd 936c 23be bfb3 f53b 3f6b ecbd
00000130: 7f82 cebd 7b20 c0bd f1ba 63be c6fa c3bd
00000140: b324 31bd 92cd e93d 50d0 e53d 097b 0b3d
00000150: 1989 d9bd bb64 e63d 25b8 fdbd 154f f8bd
00000160: dc53 223d 3a58 253e d35b ff3d 4bc8 073e
00000170: 104e 363d 40b9 96bd ccc7 10be 714a 193e
00000180: 0bd7 303e 24c6 09be b61e 363e 6245 573d
00000190: 1106 143c ef78 64bd 810c 61bd 8a35 6ebd
000001a0: 3177 32bd 899c 95ba 2292 56ba 9b3d 8b3e
000001b0: 871b 53bb f59b ba3d 14da 793d c5d7 843d
000001c0: e964 a7bc c010 e5bd 8877 003e 4f00 16be
000001d0: d940 f5bd a401 97bd a709 0ebe ee25 bb3c
000001e0: ed06 05be 3399 1f3d cfc8 22be 2595 703c
000001f0: 9f93 67bc 54dd 40be 14a8 963d 0d1f 46be
-0.010667967 -0.057161607 -0.034163713 -0.0460496 -0.19578423 0.1623276 0.12528399 0.07330887
0.08974011 -0.020598982 0.17481194 -0.08391928 0.04367098 0.10951366 -0.05885218 0.027952323
0.0013107159 -0.008620634 0.09279308 0.09822639 0.058045838 -0.03712196 0.14185248 0.017418787
0.0127691 0.048949275 -0.07706664 -0.09461503 -0.08657996 0.06758713 0.037607066 -0.0857201
0.24134713 0.03955269 -0.056718722 -0.080840476 -0.053651407 0.03147007 0.15129907 -0.06289834
-0.12634984 -0.14725168 -0.08399167 0.08098486 -0.020583466 0.09373105 0.13224925 -0.05869382
0.081809826 -0.018447688 -0.17742763 -0.14706244 0.018544918 0.1874068 0.12473826 0.17660585
0.046374306 0.23612839 -0.12619881 0.054684598 0.06278097 0.05606703 0.118293956 0.029900627
0.025747577 -0.083661415 0.1007668 -0.025659125 -0.0052121743 0.06537119 0.03602888 0.02955124
-0.03469988 -0.15959387 0.007498234 -0.11543893 -0.10083484 -0.09381195 -0.22239281 -0.095693156
-0.04324789 0.114161626 0.11221373 0.034052882 -0.106218524 0.112496816 -0.123886384 -0.12124459
0.039630756 0.16146937 0.12468686 0.1326 0.04450804 -0.073595524 -0.14138716 0.14969803
0.17269532 -0.13454491 0.17785153 0.052556403 0.0090346495 -0.055779394 -0.054943565 -0.058156528
-0.0435707 -0.0011414449 -0.00081852276 0.2719544 -0.0032212452 0.09111778 0.06099899 0.06486467
-0.02043386 -0.111848354 0.12545598 -0.14648555 -0.11975259 -0.0737336 -0.1387087 0.022845235
-0.12990923 0.03896446 -0.15896915 0.014683996 -0.014134317 -0.1883443 0.07356277 -0.19347782

weight f4 [18, 186]
00000000: 8e3b 8abc e436 123e 52d3 f3bc a945 363e
00000010: 7f5b 68be ad5a 0d3e 424d fcbd d3f5 4f3d
00000020: 77d3 2d3c d11a 53bd a71b 28be b066 c2bd
00000030: ed6b d63d 1d24 33be 24a1 6cbe 9d4c 3e3c
00000040: fa0a 3ebd 4a79 793e 62bf 2b3d a3d7 febc
00000050: 625d 1ebd b5cc d5bc 51dd ffba 9cbb 713c
00000060: 3188 b73d 7ac8 91bd 906c 883c f7ae 853d
00000070: f8e4 72bd c05e 84bb 5c6b 46bd 006d beba
00000080: 0626 c8bc 179d 24bd ce37 59bd 4219 8ebd
00000090: 7c01 ff3c 8cdc 893c 5ae2 683d e031 7dbb
000000a0: 032e 143d 50ea 38bd c084 b5bb b8fb 3a3c
000000b0: 9cd5 413d afb3 8d3d 2019 3d3c a284 92bd
000000c0: 7e55 57bd a989 0ebd e46b e43c 6d14 96bd
000000d0: 6029 a637 62c7 763d 5011 31bc b2cc 6d3d
000000e0: dc63 0e3d f04e a5bb 25ab 6f3d 7d24 b63c
000000f0: d201 883d 36d4 b83d 13c1 d2bd e947 35bd
00000100: 44eb 29bd 56ea b13d 9ac4 c7bd b2ad 2d3d
00000110: 4786 8abc ad53 b5bc d979 39bd 6b78 aa3d
00000120: 59e0 163d b9ad 09bd 9c3c acbb eaa6 c73c
00000130: ecd7 acbc 3078 d8bc 146c 563d 968b dabc
00000140: dacf 98bc 37b0 993d 1c5f 53bc e89d b2bd
00000150: f95c bd3d a95c 163d 496b 9e3c 4989 4e3e
00000160: 5cac 23bd 65d4 de3d 6c68 01be f132 e73c
00000170: 000a d43c e2d5 3cbb 2996 e1bd 603b 23bd
00000180: b41b ef3d 996e 17bd b29c 8bbd 5a33 033e
00000190: 7f0e a6bb dc34 b6bd 4789 e3bd 41ab 643d
000001a0: eb73 e33d 3d09 563c e7c4 09bd 58fe 5abd
000001b0: 6bdb 1f3d 7878 523c 21ac 243d 03ed 143c
000001c0: 0ca1 5e3d b148 2f3d fe85 a63d a68d 09bd
000001d0: 9ecd 023e c705 be3d 2d27 45bd d08b 0c3c
000001e0: 94ce b6bc 9da5 79bd 681e b4bd d0cc 1f3c
000001f0: b697 983d 3a0d 113d 2bcb 873c 88b3 8f3c
00000200: 9747 97bd 5d12 3d3d ec81 88bc f0c0 993d
00000210: 6e1a 123e 5fed 44bd b459 c83d 127a 26bd
00000220: a378 d1bd 50ed 0d3e 5658 dcbd 04d7 3fbc
00000230: 0680 b53d b4b4 e0bc 7f9d d6bd 3176 883d
00000240: 3b75 693c 0909 1f3e 9085 b9bc 0599 7ebc
00000250: 3577 5abd ecab 2e3d f431 d23d 59c9 303d
00000260: ba4f 2cbd 6df0 cebd 6333 8a3d d843 a03d
00000270: 48b9 82bb 72fa bdbd a168 7fbd b2a2 38bd
00000280: 1ebd 833c 093e 2a3b be6f bfbb a953 7f3d
00000290: 9cc7 82bd 370e d1bc 7d5d f1bd 4c09 30bd
000002a0: 50cc 72bd e060 143d 4436 04be 457f b73d
000002b0: 8e89 b3bd 51f5 143c 0ae3 8fbc 0362 2639
000002c0: b7e6 d83c 0836 683d 0fed 6ebc 6374 383c
000002d0: 03ad aebd 79b1 b23d e22f aebb cbd9 d13d
000002e0: c1fa 923c ce5b 153e 8ce3 3bbe 0130 4e3a
000002f0: eeeb 0f3a ddfc 313b 0a56 733c 9c5c d43b
00000300: 22f0 1c3f f37f 25bc 30db 4d3e 2587 29bd
00000310: b42e efbd 7f50 02be 82b9 97bc 9656 2b3e
00000320: 2ab5 dc3c 9047 cf3c 9e7c 40bd 6886 0abe
00000330: 660e 0abe 4f44 c6bd 420b 3b3e ca28 0f3d
00000340: 6d42 a73d 66d2 9c3c 0777 51bc 3adc b7bc
00000350: 08ef 373c c045 e3ba d2e7 43bd 10c6 e0bb
00000360: ddb1 74bd 5006 363d 4841 513c 6aea 623d
00000370: 50b8 fd3c 104e d4bb af31 77bd f3ed 1abd
00000380: 502e c1bb 9af6 62bd 9fb8 413d 247d 18bd
00000390: 6814 c93c 1241 403d 163a 6a3d 346d 70bd
000003a0: 3abc 82bd 6824 8ebd cc04 1f3d 18db 483d
000003b0: fe60 92bc 8001 91bc abca 5c3d fd67 26bd
000003c0: d8d2 8abd 5c2f 833c 8a93 173d 1905 943d
000003d0: fa31 123e 19d5 1abe c1ea acbc e420 e73c
000003e0: bf76 51be cc78 4a3e 561c 0c3e 70af b43d
000003f0: 0b9e f13d d44d 3ebe 7259 0c3e 835c 0abe
-0.016874101 0.14278752 -0.029763851 0.1780001 -0.22691153 0.13804121 -0.12319423 0.050771546
0.010609499 -0.051539246 -0.16416799 -0.09492242 0.10469804 -0.17494245 -0.23108345 0.011614946
-0.046397187 0.24362674 0.041930564 -0.031108683 -0.038663276 -0.026098588 -0.0019520913 0.014754202
0.08961523 -0.07118316 0.01665333 0.065275125 -0.059300393 -0.0040396154 -0.04844223 -0.0014528334
-0.024432193 -0.040188875 -0.053031735 -0.06938411 0.031128637 0.016828798 0.05685649 -0.0038634464
0.036176693 -0.045145333 -0.0055395067 0.0114125535 0.047322854 0.069190376 0.011541635 -0.07154204
-0.052571766 -0.03479925 0.027883478 -0.07328115 1.9808009e-05 0.06024874 -0.01080735 0.05805654
0.034763202 -0.0050448105 0.058512826 0.022234196 0.06640972 0.09024851 -0.10290732 -0.044258032
-0.041484132 0.08687274 -0.09754296 0.042401977 -0.016909732 -0.022134626 -0.04528222 0.08323749
0.03683505 -0.03361294 -0.0052562486 0.024371583 -0.021099053 -0.026424497 0.052349165 -0.026677888
-0.018653799 0.075043134 -0.012901094 -0.087215245 0.09246249 0.03670946 0.019338267 0.20169558
-0.039959297 0.10880355 -0.1263749 0.028222533 0.025883675 -0.0028814008 -0.11014969 -0.039851546
0.11675206 -0.03697071 -0.06816997 0.12812558 -0.005067646 -0.08896801 -0.11110168 0.055827383
0.11106094 0.013063726 -0.033635046 -0.053465217 0.039027613 0.012846105 0.040203217 0.009089711
0.054352805 0.042793933 0.08131026 -0.033582352 0.12773749 0.09278446 -0.048133064 0.008578256
-0.022315301 -0.060948957 -0.08794862 0.009753421 0.074508116 0.035413004 0.01657637 0.017541662
-0.073867016 0.04616009 -0.016663514 0.07507503 0.14267895 -0.048077937 0.097827345 -0.04064376
-0.10228088 0.13860059 -0.10759036 -0.011708979 0.08862309 -0.027429916 -0.10479259 0.06663168
0.014249141 0.1553079 -0.022646695 -0.015539412 -0.05333634 0.042644426 0.10263434 0.04316077
-0.04206822 -0.10104451 0.067480825 0.0782544 -0.0039893724 -0.09276284 -0.06235564 -0.045077033
0.016081389 0.0025976917 -0.005842178 0.062335644 -0.06385729 -0.025519473 -0.117854096 -0.042977616
-0.05927688 0.0362252 -0.12911326 0.089598216 -0.08766471 0.009091691 -0.017564315 0.00015867506
0.0264772 0.056692153 -0.014582886 0.0112582175 -0.08529093 0.087252565 -0.0053157667 0.10246619
0.017941834 0.14585802 -0.18348521 0.00078654295 0.00054901734 0.0027158775 0.014852056 0.0064807665
0.61303914 -0.010101306 0.20103145 -0.04138865 -0.1167883 -0.1272602 -0.018521074 0.16732249
0.026941855 0.025302678 -0.046993844 -0.13527834 -0.13482055 -0.096809976 0.18266013 0.03495101
0.081669666 0.019143295 -0.012784726 -0.02244388 0.011226423 -0.0017339513 -0.047828503 -0.0068595484
-0.059739936 0.044439614 0.012771912 0.055399336 0.030971676 -0.0064790323 -0.060350116 -0.037824582
-0.0058954135 -0.05541096 0.04729521 -0.03722872 0.024545863 0.046937056 0.0571843 -0.058697894
-0.063835576 -0.06940538 0.038822934 0.04903707 -0.017868515 -0.01770091 0.053904217 -0.040626515
-0.067784965 0.016013794 0.03700594 0.07227535 0.14276877 -0.15120353 -0.021108033 0.028213926
-0.20455454 0.19772643 0.13682684 0.088225245 0.117977224 -0.18584377 0.13705996 -0.13511853

bias f4 [18]
00000000: 8511 043d 7af9 993e 1abf 88bd 6ce4 84bd
00000010: f00d 9abd fc1a 94bc 61a4 2fbc 0335 8fbe
00000020: 7ac0 26bd b699 ecbd 646f 183b b774 d83e
00000030: c7ba 97bd 8619 87bd 8438 28be 4688 7bbd
00000040: af34 2ebd 42b0 b93e
0.03224327 0.30073148 -0.06677075 -0.064888805 -0.075221896 -0.018079273 -0.010720343 -0.27970132
-0.040710904 -0.115527555 0.0023259753 0.42276546 -0.07408672 -0.06596665 -0.16427809 -0.061409257
-0.04253071 0.36267287
